{"class_name": "Model", "config": {"name": "model_1", "layers": [{"name": "input_1", "class_name": "InputLayer", "config": {"batch_input_shape": [null, 1, 48, 48], "dtype": "float32", "sparse": false, "name": "input_1"}, "inbound_nodes": []}, {"name": "conv2d_2", "class_name": "Conv2D", "config": {"name": "conv2d_2", "trainable": true, "filters": 32, "kernel_size": [3, 3], "strides": [1, 1], "padding": "same", "data_format": "channels_first", "dilation_rate": [1, 1], "activation": "relu", "use_bias": true, "kernel_initializer": {"class_name": "VarianceScaling", "config": {"scale": 1.0, "mode": "fan_avg", "distribution": "uniform", "seed": null}}, "bias_initializer": {"class_name": "Zeros", "config": {}}, "kernel_regularizer": null, "bias_regularizer": null, "activity_regularizer": null, "kernel_constraint": null, "bias_constraint": null}, "inbound_nodes": [[["input_1", 0, 0, {}]]]}, {"name": "dropout_1", "class_name": "Dropout", "config": {"name": "dropout_1", "trainable": true, "rate": 0.3, "noise_shape": null, "seed": null}, "inbound_nodes": [[["conv2d_2", 0, 0, {}]]]}, {"name": "conv2d_3", "class_name": "Conv2D", "config": {"name": "conv2d_3", "trainable": true, "filters": 32, "kernel_size": [3, 3], "strides": [1, 1], "padding": "same", "data_format": "channels_first", "dilation_rate": [1, 1], "activation": "relu", "use_bias": true, "kernel_initializer": {"class_name": "VarianceScaling", "config": {"scale": 1.0, "mode": "fan_avg", "distribution": "uniform", "seed": null}}, "bias_initializer": {"class_name": "Zeros", "config": {}}, "kernel_regularizer": null, "bias_regularizer": null, "activity_regularizer": null, "kernel_constraint": null, "bias_constraint": null}, "inbound_nodes": [[["dropout_1", 0, 0, {}]]]}, {"name": "dropout_2", "class_name": "Dropout", "config": {"name": "dropout_2", "trainable": true, "rate": 0.3, "noise_shape": null, "seed": null}, "inbound_nodes": [[["conv2d_3", 0, 0, {}]]]}, {"name": "global_average_pooling2d_1", "class_name": "GlobalAveragePooling2D", "config": {"name": "global_average_pooling2d_1", "trainable": true, "data_format": "channels_first"}, "inbound_nodes": [[["dropout_2", 0, 0, {}]]]}, {"name": "reshape_1", "class_name": "Reshape", "config": {"name": "reshape_1", "trainable": true, "target_shape": [1, 1, 32]}, "inbound_nodes": [[["global_average_pooling2d_1", 0, 0, {}]]]}, {"name": "dense_1", "class_name": "Dense", "config": {"name": "dense_1", "trainable": true, "units": 8, "activation": "relu", "use_bias": true, "kernel_initializer": {"class_name": "VarianceScaling", "config": {"scale": 1.0, "mode": "fan_avg", "distribution": "uniform", "seed": null}}, "bias_initializer": {"class_name": "Zeros", "config": {}}, "kernel_regularizer": null, "bias_regularizer": null, "activity_regularizer": null, "kernel_constraint": null, "bias_constraint": null}, "inbound_nodes": [[["reshape_1", 0, 0, {}]]]}, {"name": "dense_2", "class_name": "Dense", "config": {"name": "dense_2", "trainable": true, "units": 32, "activation": "sigmoid", "use_bias": true, "kernel_initializer": {"class_name": "VarianceScaling", "config": {"scale": 1.0, "mode": "fan_avg", "distribution": "uniform", "seed": null}}, "bias_initializer": {"class_name": "Zeros", "config": {}}, "kernel_regularizer": null, "bias_regularizer": null, "activity_regularizer": null, "kernel_constraint": null, "bias_constraint": null}, "inbound_nodes": [[["dense_1", 0, 0, {}]]]}, {"name": "reshape_2", "class_name": "Reshape", "config": {"name": "reshape_2", "trainable": true, "target_shape": [32, 1, 1]}, "inbound_nodes": [[["dense_2", 0, 0, {}]]]}, {"name": "multiply_1", "class_name": "Multiply", "config": {"name": "multiply_1", "trainable": true}, "inbound_nodes": [[["dropout_2", 0, 0, {}], ["reshape_2", 0, 0, {}]]]}, {"name": "conv2d_1", "class_name": "Conv2D", "config": {"name": "conv2d_1", "trainable": true, "filters": 32, "kernel_size": [3, 3], "strides": [1, 1], "padding": "same", "data_format": "channels_first", "dilation_rate": [1, 1], "activation": "relu", "use_bias": true, "kernel_initializer": {"class_name": "VarianceScaling", "config": {"scale": 1.0, "mode": "fan_avg", "distribution": "uniform", "seed": null}}, "bias_initializer": {"class_name": "Zeros", "config": {}}, "kernel_regularizer": null, "bias_regularizer": null, "activity_regularizer": null, "kernel_constraint": null, "bias_constraint": null}, "inbound_nodes": [[["input_1", 0, 0, {}]]]}, {"name": "add_1", "class_name": "Add", "config": {"name": "add_1", "trainable": true}, "inbound_nodes": [[["multiply_1", 0, 0, {}], ["conv2d_1", 0, 0, {}]]]}, {"name": "conv2d_4", "class_name": "Conv2D", "config": {"name": "conv2d_4", "trainable": true, "filters": 32, "kernel_size": [3, 3], "strides": [1, 1], "padding": "same", "data_format": "channels_first", "dilation_rate": [1, 1], "activation": "relu", "use_bias": true, "kernel_initializer": {"class_name": "VarianceScaling", "config": {"scale": 1.0, "mode": "fan_avg", "distribution": "uniform", "seed": null}}, "bias_initializer": {"class_name": "Zeros", "config": {}}, "kernel_regularizer": null, "bias_regularizer": null, "activity_regularizer": null, "kernel_constraint": null, "bias_constraint": null}, "inbound_nodes": [[["add_1", 0, 0, {}]]]}, {"name": "dropout_3", "class_name": "Dropout", "config": {"name": "dropout_3", "trainable": true, "rate": 0.3, "noise_shape": null, "seed": null}, "inbound_nodes": [[["conv2d_4", 0, 0, {}]]]}, {"name": "conv2d_5", "class_name": "Conv2D", "config": {"name": "conv2d_5", "trainable": true, "filters": 32, "kernel_size": [3, 3], "strides": [1, 1], "padding": "same", "data_format": "channels_first", "dilation_rate": [1, 1], "activation": "relu", "use_bias": true, "kernel_initializer": {"class_name": "VarianceScaling", "config": {"scale": 1.0, "mode": "fan_avg", "distribution": "uniform", "seed": null}}, "bias_initializer": {"class_name": "Zeros", "config": {}}, "kernel_regularizer": null, "bias_regularizer": null, "activity_regularizer": null, "kernel_constraint": null, "bias_constraint": null}, "inbound_nodes": [[["dropout_3", 0, 0, {}]]]}, {"name": "dropout_4", "class_name": "Dropout", "config": {"name": "dropout_4", "trainable": true, "rate": 0.3, "noise_shape": null, "seed": null}, "inbound_nodes": [[["conv2d_5", 0, 0, {}]]]}, {"name": "global_average_pooling2d_2", "class_name": "GlobalAveragePooling2D", "config": {"name": "global_average_pooling2d_2", "trainable": true, "data_format": "channels_first"}, "inbound_nodes": [[["dropout_4", 0, 0, {}]]]}, {"name": "reshape_3", "class_name": "Reshape", "config": {"name": "reshape_3", "trainable": true, "target_shape": [1, 1, 32]}, "inbound_nodes": [[["global_average_pooling2d_2", 0, 0, {}]]]}, {"name": "dense_3", "class_name": "Dense", "config": {"name": "dense_3", "trainable": true, "units": 8, "activation": "relu", "use_bias": true, "kernel_initializer": {"class_name": "VarianceScaling", "config": {"scale": 1.0, "mode": "fan_avg", "distribution": "uniform", "seed": null}}, "bias_initializer": {"class_name": "Zeros", "config": {}}, "kernel_regularizer": null, "bias_regularizer": null, "activity_regularizer": null, "kernel_constraint": null, "bias_constraint": null}, "inbound_nodes": [[["reshape_3", 0, 0, {}]]]}, {"name": "dense_4", "class_name": "Dense", "config": {"name": "dense_4", "trainable": true, "units": 32, "activation": "sigmoid", "use_bias": true, "kernel_initializer": {"class_name": "VarianceScaling", "config": {"scale": 1.0, "mode": "fan_avg", "distribution": "uniform", "seed": null}}, "bias_initializer": {"class_name": "Zeros", "config": {}}, "kernel_regularizer": null, "bias_regularizer": null, "activity_regularizer": null, "kernel_constraint": null, "bias_constraint": null}, "inbound_nodes": [[["dense_3", 0, 0, {}]]]}, {"name": "reshape_4", "class_name": "Reshape", "config": {"name": "reshape_4", "trainable": true, "target_shape": [32, 1, 1]}, "inbound_nodes": [[["dense_4", 0, 0, {}]]]}, {"name": "multiply_2", "class_name": "Multiply", "config": {"name": "multiply_2", "trainable": true}, "inbound_nodes": [[["dropout_4", 0, 0, {}], ["reshape_4", 0, 0, {}]]]}, {"name": "add_2", "class_name": "Add", "config": {"name": "add_2", "trainable": true}, "inbound_nodes": [[["add_1", 0, 0, {}], ["multiply_2", 0, 0, {}]]]}, {"name": "conv2d_6", "class_name": "Conv2D", "config": {"name": "conv2d_6", "trainable": true, "filters": 64, "kernel_size": [2, 2], "strides": [2, 2], "padding": "same", "data_format": "channels_first", "dilation_rate": [1, 1], "activation": "relu", "use_bias": true, "kernel_initializer": {"class_name": "VarianceScaling", "config": {"scale": 1.0, "mode": "fan_avg", "distribution": "uniform", "seed": null}}, "bias_initializer": {"class_name": "Zeros", "config": {}}, "kernel_regularizer": null, "bias_regularizer": null, "activity_regularizer": null, "kernel_constraint": null, "bias_constraint": null}, "inbound_nodes": [[["add_2", 0, 0, {}]]]}, {"name": "conv2d_7", "class_name": "Conv2D", "config": {"name": "conv2d_7", "trainable": true, "filters": 64, "kernel_size": [3, 3], "strides": [1, 1], "padding": "same", "data_format": "channels_first", "dilation_rate": [1, 1], "activation": "relu", "use_bias": true, "kernel_initializer": {"class_name": "VarianceScaling", "config": {"scale": 1.0, "mode": "fan_avg", "distribution": "uniform", "seed": null}}, "bias_initializer": {"class_name": "Zeros", "config": {}}, "kernel_regularizer": null, "bias_regularizer": null, "activity_regularizer": null, "kernel_constraint": null, "bias_constraint": null}, "inbound_nodes": [[["conv2d_6", 0, 0, {}]]]}, {"name": "dropout_5", "class_name": "Dropout", "config": {"name": "dropout_5", "trainable": true, "rate": 0.3, "noise_shape": null, "seed": null}, "inbound_nodes": [[["conv2d_7", 0, 0, {}]]]}, {"name": "conv2d_8", "class_name": "Conv2D", "config": {"name": "conv2d_8", "trainable": true, "filters": 64, "kernel_size": [3, 3], "strides": [1, 1], "padding": "same", "data_format": "channels_first", "dilation_rate": [1, 1], "activation": "relu", "use_bias": true, "kernel_initializer": {"class_name": "VarianceScaling", "config": {"scale": 1.0, "mode": "fan_avg", "distribution": "uniform", "seed": null}}, "bias_initializer": {"class_name": "Zeros", "config": {}}, "kernel_regularizer": null, "bias_regularizer": null, "activity_regularizer": null, "kernel_constraint": null, "bias_constraint": null}, "inbound_nodes": [[["dropout_5", 0, 0, {}]]]}, {"name": "dropout_6", "class_name": "Dropout", "config": {"name": "dropout_6", "trainable": true, "rate": 0.3, "noise_shape": null, "seed": null}, "inbound_nodes": [[["conv2d_8", 0, 0, {}]]]}, {"name": "global_average_pooling2d_3", "class_name": "GlobalAveragePooling2D", "config": {"name": "global_average_pooling2d_3", "trainable": true, "data_format": "channels_first"}, "inbound_nodes": [[["dropout_6", 0, 0, {}]]]}, {"name": "reshape_5", "class_name": "Reshape", "config": {"name": "reshape_5", "trainable": true, "target_shape": [1, 1, 64]}, "inbound_nodes": [[["global_average_pooling2d_3", 0, 0, {}]]]}, {"name": "dense_5", "class_name": "Dense", "config": {"name": "dense_5", "trainable": true, "units": 16, "activation": "relu", "use_bias": true, "kernel_initializer": {"class_name": "VarianceScaling", "config": {"scale": 1.0, "mode": "fan_avg", "distribution": "uniform", "seed": null}}, "bias_initializer": {"class_name": "Zeros", "config": {}}, "kernel_regularizer": null, "bias_regularizer": null, "activity_regularizer": null, "kernel_constraint": null, "bias_constraint": null}, "inbound_nodes": [[["reshape_5", 0, 0, {}]]]}, {"name": "dense_6", "class_name": "Dense", "config": {"name": "dense_6", "trainable": true, "units": 64, "activation": "sigmoid", "use_bias": true, "kernel_initializer": {"class_name": "VarianceScaling", "config": {"scale": 1.0, "mode": "fan_avg", "distribution": "uniform", "seed": null}}, "bias_initializer": {"class_name": "Zeros", "config": {}}, "kernel_regularizer": null, "bias_regularizer": null, "activity_regularizer": null, "kernel_constraint": null, "bias_constraint": null}, "inbound_nodes": [[["dense_5", 0, 0, {}]]]}, {"name": "reshape_6", "class_name": "Reshape", "config": {"name": "reshape_6", "trainable": true, "target_shape": [64, 1, 1]}, "inbound_nodes": [[["dense_6", 0, 0, {}]]]}, {"name": "multiply_3", "class_name": "Multiply", "config": {"name": "multiply_3", "trainable": true}, "inbound_nodes": [[["dropout_6", 0, 0, {}], ["reshape_6", 0, 0, {}]]]}, {"name": "add_3", "class_name": "Add", "config": {"name": "add_3", "trainable": true}, "inbound_nodes": [[["conv2d_6", 0, 0, {}], ["multiply_3", 0, 0, {}]]]}, {"name": "conv2d_9", "class_name": "Conv2D", "config": {"name": "conv2d_9", "trainable": true, "filters": 64, "kernel_size": [3, 3], "strides": [1, 1], "padding": "same", "data_format": "channels_first", "dilation_rate": [1, 1], "activation": "relu", "use_bias": true, "kernel_initializer": {"class_name": "VarianceScaling", "config": {"scale": 1.0, "mode": "fan_avg", "distribution": "uniform", "seed": null}}, "bias_initializer": {"class_name": "Zeros", "config": {}}, "kernel_regularizer": null, "bias_regularizer": null, "activity_regularizer": null, "kernel_constraint": null, "bias_constraint": null}, "inbound_nodes": [[["add_3", 0, 0, {}]]]}, {"name": "dropout_7", "class_name": "Dropout", "config": {"name": "dropout_7", "trainable": true, "rate": 0.3, "noise_shape": null, "seed": null}, "inbound_nodes": [[["conv2d_9", 0, 0, {}]]]}, {"name": "conv2d_10", "class_name": "Conv2D", "config": {"name": "conv2d_10", "trainable": true, "filters": 64, "kernel_size": [3, 3], "strides": [1, 1], "padding": "same", "data_format": "channels_first", "dilation_rate": [1, 1], "activation": "relu", "use_bias": true, "kernel_initializer": {"class_name": "VarianceScaling", "config": {"scale": 1.0, "mode": "fan_avg", "distribution": "uniform", "seed": null}}, "bias_initializer": {"class_name": "Zeros", "config": {}}, "kernel_regularizer": null, "bias_regularizer": null, "activity_regularizer": null, "kernel_constraint": null, "bias_constraint": null}, "inbound_nodes": [[["dropout_7", 0, 0, {}]]]}, {"name": "dropout_8", "class_name": "Dropout", "config": {"name": "dropout_8", "trainable": true, "rate": 0.3, "noise_shape": null, "seed": null}, "inbound_nodes": [[["conv2d_10", 0, 0, {}]]]}, {"name": "global_average_pooling2d_4", "class_name": "GlobalAveragePooling2D", "config": {"name": "global_average_pooling2d_4", "trainable": true, "data_format": "channels_first"}, "inbound_nodes": [[["dropout_8", 0, 0, {}]]]}, {"name": "reshape_7", "class_name": "Reshape", "config": {"name": "reshape_7", "trainable": true, "target_shape": [1, 1, 64]}, "inbound_nodes": [[["global_average_pooling2d_4", 0, 0, {}]]]}, {"name": "dense_7", "class_name": "Dense", "config": {"name": "dense_7", "trainable": true, "units": 16, "activation": "relu", "use_bias": true, "kernel_initializer": {"class_name": "VarianceScaling", "config": {"scale": 1.0, "mode": "fan_avg", "distribution": "uniform", "seed": null}}, "bias_initializer": {"class_name": "Zeros", "config": {}}, "kernel_regularizer": null, "bias_regularizer": null, "activity_regularizer": null, "kernel_constraint": null, "bias_constraint": null}, "inbound_nodes": [[["reshape_7", 0, 0, {}]]]}, {"name": "dense_8", "class_name": "Dense", "config": {"name": "dense_8", "trainable": true, "units": 64, "activation": "sigmoid", "use_bias": true, "kernel_initializer": {"class_name": "VarianceScaling", "config": {"scale": 1.0, "mode": "fan_avg", "distribution": "uniform", "seed": null}}, "bias_initializer": {"class_name": "Zeros", "config": {}}, "kernel_regularizer": null, "bias_regularizer": null, "activity_regularizer": null, "kernel_constraint": null, "bias_constraint": null}, "inbound_nodes": [[["dense_7", 0, 0, {}]]]}, {"name": "reshape_8", "class_name": "Reshape", "config": {"name": "reshape_8", "trainable": true, "target_shape": [64, 1, 1]}, "inbound_nodes": [[["dense_8", 0, 0, {}]]]}, {"name": "multiply_4", "class_name": "Multiply", "config": {"name": "multiply_4", "trainable": true}, "inbound_nodes": [[["dropout_8", 0, 0, {}], ["reshape_8", 0, 0, {}]]]}, {"name": "add_4", "class_name": "Add", "config": {"name": "add_4", "trainable": true}, "inbound_nodes": [[["add_3", 0, 0, {}], ["multiply_4", 0, 0, {}]]]}, {"name": "conv2d_11", "class_name": "Conv2D", "config": {"name": "conv2d_11", "trainable": true, "filters": 128, "kernel_size": [2, 2], "strides": [2, 2], "padding": "same", "data_format": "channels_first", "dilation_rate": [1, 1], "activation": "relu", "use_bias": true, "kernel_initializer": {"class_name": "VarianceScaling", "config": {"scale": 1.0, "mode": "fan_avg", "distribution": "uniform", "seed": null}}, "bias_initializer": {"class_name": "Zeros", "config": {}}, "kernel_regularizer": null, "bias_regularizer": null, "activity_regularizer": null, "kernel_constraint": null, "bias_constraint": null}, "inbound_nodes": [[["add_4", 0, 0, {}]]]}, {"name": "conv2d_12", "class_name": "Conv2D", "config": {"name": "conv2d_12", "trainable": true, "filters": 128, "kernel_size": [3, 3], "strides": [1, 1], "padding": "same", "data_format": "channels_first", "dilation_rate": [1, 1], "activation": "relu", "use_bias": true, "kernel_initializer": {"class_name": "VarianceScaling", "config": {"scale": 1.0, "mode": "fan_avg", "distribution": "uniform", "seed": null}}, "bias_initializer": {"class_name": "Zeros", "config": {}}, "kernel_regularizer": null, "bias_regularizer": null, "activity_regularizer": null, "kernel_constraint": null, "bias_constraint": null}, "inbound_nodes": [[["conv2d_11", 0, 0, {}]]]}, {"name": "dropout_9", "class_name": "Dropout", "config": {"name": "dropout_9", "trainable": true, "rate": 0.3, "noise_shape": null, "seed": null}, "inbound_nodes": [[["conv2d_12", 0, 0, {}]]]}, {"name": "conv2d_13", "class_name": "Conv2D", "config": {"name": "conv2d_13", "trainable": true, "filters": 128, "kernel_size": [3, 3], "strides": [1, 1], "padding": "same", "data_format": "channels_first", "dilation_rate": [1, 1], "activation": "relu", "use_bias": true, "kernel_initializer": {"class_name": "VarianceScaling", "config": {"scale": 1.0, "mode": "fan_avg", "distribution": "uniform", "seed": null}}, "bias_initializer": {"class_name": "Zeros", "config": {}}, "kernel_regularizer": null, "bias_regularizer": null, "activity_regularizer": null, "kernel_constraint": null, "bias_constraint": null}, "inbound_nodes": [[["dropout_9", 0, 0, {}]]]}, {"name": "dropout_10", "class_name": "Dropout", "config": {"name": "dropout_10", "trainable": true, "rate": 0.3, "noise_shape": null, "seed": null}, "inbound_nodes": [[["conv2d_13", 0, 0, {}]]]}, {"name": "global_average_pooling2d_5", "class_name": "GlobalAveragePooling2D", "config": {"name": "global_average_pooling2d_5", "trainable": true, "data_format": "channels_first"}, "inbound_nodes": [[["dropout_10", 0, 0, {}]]]}, {"name": "reshape_9", "class_name": "Reshape", "config": {"name": "reshape_9", "trainable": true, "target_shape": [1, 1, 128]}, "inbound_nodes": [[["global_average_pooling2d_5", 0, 0, {}]]]}, {"name": "dense_9", "class_name": "Dense", "config": {"name": "dense_9", "trainable": true, "units": 32, "activation": "relu", "use_bias": true, "kernel_initializer": {"class_name": "VarianceScaling", "config": {"scale": 1.0, "mode": "fan_avg", "distribution": "uniform", "seed": null}}, "bias_initializer": {"class_name": "Zeros", "config": {}}, "kernel_regularizer": null, "bias_regularizer": null, "activity_regularizer": null, "kernel_constraint": null, "bias_constraint": null}, "inbound_nodes": [[["reshape_9", 0, 0, {}]]]}, {"name": "dense_10", "class_name": "Dense", "config": {"name": "dense_10", "trainable": true, "units": 128, "activation": "sigmoid", "use_bias": true, "kernel_initializer": {"class_name": "VarianceScaling", "config": {"scale": 1.0, "mode": "fan_avg", "distribution": "uniform", "seed": null}}, "bias_initializer": {"class_name": "Zeros", "config": {}}, "kernel_regularizer": null, "bias_regularizer": null, "activity_regularizer": null, "kernel_constraint": null, "bias_constraint": null}, "inbound_nodes": [[["dense_9", 0, 0, {}]]]}, {"name": "reshape_10", "class_name": "Reshape", "config": {"name": "reshape_10", "trainable": true, "target_shape": [128, 1, 1]}, "inbound_nodes": [[["dense_10", 0, 0, {}]]]}, {"name": "multiply_5", "class_name": "Multiply", "config": {"name": "multiply_5", "trainable": true}, "inbound_nodes": [[["dropout_10", 0, 0, {}], ["reshape_10", 0, 0, {}]]]}, {"name": "add_5", "class_name": "Add", "config": {"name": "add_5", "trainable": true}, "inbound_nodes": [[["conv2d_11", 0, 0, {}], ["multiply_5", 0, 0, {}]]]}, {"name": "conv2d_14", "class_name": "Conv2D", "config": {"name": "conv2d_14", "trainable": true, "filters": 128, "kernel_size": [3, 3], "strides": [1, 1], "padding": "same", "data_format": "channels_first", "dilation_rate": [1, 1], "activation": "relu", "use_bias": true, "kernel_initializer": {"class_name": "VarianceScaling", "config": {"scale": 1.0, "mode": "fan_avg", "distribution": "uniform", "seed": null}}, "bias_initializer": {"class_name": "Zeros", "config": {}}, "kernel_regularizer": null, "bias_regularizer": null, "activity_regularizer": null, "kernel_constraint": null, "bias_constraint": null}, "inbound_nodes": [[["add_5", 0, 0, {}]]]}, {"name": "dropout_11", "class_name": "Dropout", "config": {"name": "dropout_11", "trainable": true, "rate": 0.3, "noise_shape": null, "seed": null}, "inbound_nodes": [[["conv2d_14", 0, 0, {}]]]}, {"name": "conv2d_15", "class_name": "Conv2D", "config": {"name": "conv2d_15", "trainable": true, "filters": 128, "kernel_size": [3, 3], "strides": [1, 1], "padding": "same", "data_format": "channels_first", "dilation_rate": [1, 1], "activation": "relu", "use_bias": true, "kernel_initializer": {"class_name": "VarianceScaling", "config": {"scale": 1.0, "mode": "fan_avg", "distribution": "uniform", "seed": null}}, "bias_initializer": {"class_name": "Zeros", "config": {}}, "kernel_regularizer": null, "bias_regularizer": null, "activity_regularizer": null, "kernel_constraint": null, "bias_constraint": null}, "inbound_nodes": [[["dropout_11", 0, 0, {}]]]}, {"name": "dropout_12", "class_name": "Dropout", "config": {"name": "dropout_12", "trainable": true, "rate": 0.3, "noise_shape": null, "seed": null}, "inbound_nodes": [[["conv2d_15", 0, 0, {}]]]}, {"name": "global_average_pooling2d_6", "class_name": "GlobalAveragePooling2D", "config": {"name": "global_average_pooling2d_6", "trainable": true, "data_format": "channels_first"}, "inbound_nodes": [[["dropout_12", 0, 0, {}]]]}, {"name": "reshape_11", "class_name": "Reshape", "config": {"name": "reshape_11", "trainable": true, "target_shape": [1, 1, 128]}, "inbound_nodes": [[["global_average_pooling2d_6", 0, 0, {}]]]}, {"name": "dense_11", "class_name": "Dense", "config": {"name": "dense_11", "trainable": true, "units": 32, "activation": "relu", "use_bias": true, "kernel_initializer": {"class_name": "VarianceScaling", "config": {"scale": 1.0, "mode": "fan_avg", "distribution": "uniform", "seed": null}}, "bias_initializer": {"class_name": "Zeros", "config": {}}, "kernel_regularizer": null, "bias_regularizer": null, "activity_regularizer": null, "kernel_constraint": null, "bias_constraint": null}, "inbound_nodes": [[["reshape_11", 0, 0, {}]]]}, {"name": "dense_12", "class_name": "Dense", "config": {"name": "dense_12", "trainable": true, "units": 128, "activation": "sigmoid", "use_bias": true, "kernel_initializer": {"class_name": "VarianceScaling", "config": {"scale": 1.0, "mode": "fan_avg", "distribution": "uniform", "seed": null}}, "bias_initializer": {"class_name": "Zeros", "config": {}}, "kernel_regularizer": null, "bias_regularizer": null, "activity_regularizer": null, "kernel_constraint": null, "bias_constraint": null}, "inbound_nodes": [[["dense_11", 0, 0, {}]]]}, {"name": "reshape_12", "class_name": "Reshape", "config": {"name": "reshape_12", "trainable": true, "target_shape": [128, 1, 1]}, "inbound_nodes": [[["dense_12", 0, 0, {}]]]}, {"name": "multiply_6", "class_name": "Multiply", "config": {"name": "multiply_6", "trainable": true}, "inbound_nodes": [[["dropout_12", 0, 0, {}], ["reshape_12", 0, 0, {}]]]}, {"name": "add_6", "class_name": "Add", "config": {"name": "add_6", "trainable": true}, "inbound_nodes": [[["multiply_6", 0, 0, {}], ["add_5", 0, 0, {}]]]}, {"name": "conv2d_transpose_1", "class_name": "Conv2DTranspose", "config": {"name": "conv2d_transpose_1", "trainable": true, "filters": 64, "kernel_size": [2, 2], "strides": [2, 2], "padding": "same", "data_format": "channels_first", "dilation_rate": [1, 1], "activation": "relu", "use_bias": true, "kernel_initializer": {"class_name": "VarianceScaling", "config": {"scale": 1.0, "mode": "fan_avg", "distribution": "uniform", "seed": null}}, "bias_initializer": {"class_name": "Zeros", "config": {}}, "kernel_regularizer": null, "bias_regularizer": null, "activity_regularizer": null, "kernel_constraint": null, "bias_constraint": null, "output_padding": null}, "inbound_nodes": [[["add_6", 0, 0, {}]]]}, {"name": "concatenate_1", "class_name": "Concatenate", "config": {"name": "concatenate_1", "trainable": true, "axis": 1}, "inbound_nodes": [[["add_4", 0, 0, {}], ["conv2d_transpose_1", 0, 0, {}]]]}, {"name": "conv2d_16", "class_name": "Conv2D", "config": {"name": "conv2d_16", "trainable": true, "filters": 64, "kernel_size": [1, 1], "strides": [1, 1], "padding": "same", "data_format": "channels_first", "dilation_rate": [1, 1], "activation": "relu", "use_bias": true, "kernel_initializer": {"class_name": "VarianceScaling", "config": {"scale": 1.0, "mode": "fan_avg", "distribution": "uniform", "seed": null}}, "bias_initializer": {"class_name": "Zeros", "config": {}}, "kernel_regularizer": null, "bias_regularizer": null, "activity_regularizer": null, "kernel_constraint": null, "bias_constraint": null}, "inbound_nodes": [[["concatenate_1", 0, 0, {}]]]}, {"name": "conv2d_17", "class_name": "Conv2D", "config": {"name": "conv2d_17", "trainable": true, "filters": 64, "kernel_size": [3, 3], "strides": [1, 1], "padding": "same", "data_format": "channels_first", "dilation_rate": [1, 1], "activation": "relu", "use_bias": true, "kernel_initializer": {"class_name": "VarianceScaling", "config": {"scale": 1.0, "mode": "fan_avg", "distribution": "uniform", "seed": null}}, "bias_initializer": {"class_name": "Zeros", "config": {}}, "kernel_regularizer": null, "bias_regularizer": null, "activity_regularizer": null, "kernel_constraint": null, "bias_constraint": null}, "inbound_nodes": [[["conv2d_16", 0, 0, {}]]]}, {"name": "dropout_13", "class_name": "Dropout", "config": {"name": "dropout_13", "trainable": true, "rate": 0.3, "noise_shape": null, "seed": null}, "inbound_nodes": [[["conv2d_17", 0, 0, {}]]]}, {"name": "conv2d_18", "class_name": "Conv2D", "config": {"name": "conv2d_18", "trainable": true, "filters": 64, "kernel_size": [3, 3], "strides": [1, 1], "padding": "same", "data_format": "channels_first", "dilation_rate": [1, 1], "activation": "relu", "use_bias": true, "kernel_initializer": {"class_name": "VarianceScaling", "config": {"scale": 1.0, "mode": "fan_avg", "distribution": "uniform", "seed": null}}, "bias_initializer": {"class_name": "Zeros", "config": {}}, "kernel_regularizer": null, "bias_regularizer": null, "activity_regularizer": null, "kernel_constraint": null, "bias_constraint": null}, "inbound_nodes": [[["dropout_13", 0, 0, {}]]]}, {"name": "dropout_14", "class_name": "Dropout", "config": {"name": "dropout_14", "trainable": true, "rate": 0.3, "noise_shape": null, "seed": null}, "inbound_nodes": [[["conv2d_18", 0, 0, {}]]]}, {"name": "global_average_pooling2d_7", "class_name": "GlobalAveragePooling2D", "config": {"name": "global_average_pooling2d_7", "trainable": true, "data_format": "channels_first"}, "inbound_nodes": [[["dropout_14", 0, 0, {}]]]}, {"name": "reshape_13", "class_name": "Reshape", "config": {"name": "reshape_13", "trainable": true, "target_shape": [1, 1, 64]}, "inbound_nodes": [[["global_average_pooling2d_7", 0, 0, {}]]]}, {"name": "dense_13", "class_name": "Dense", "config": {"name": "dense_13", "trainable": true, "units": 16, "activation": "relu", "use_bias": true, "kernel_initializer": {"class_name": "VarianceScaling", "config": {"scale": 1.0, "mode": "fan_avg", "distribution": "uniform", "seed": null}}, "bias_initializer": {"class_name": "Zeros", "config": {}}, "kernel_regularizer": null, "bias_regularizer": null, "activity_regularizer": null, "kernel_constraint": null, "bias_constraint": null}, "inbound_nodes": [[["reshape_13", 0, 0, {}]]]}, {"name": "dense_14", "class_name": "Dense", "config": {"name": "dense_14", "trainable": true, "units": 64, "activation": "sigmoid", "use_bias": true, "kernel_initializer": {"class_name": "VarianceScaling", "config": {"scale": 1.0, "mode": "fan_avg", "distribution": "uniform", "seed": null}}, "bias_initializer": {"class_name": "Zeros", "config": {}}, "kernel_regularizer": null, "bias_regularizer": null, "activity_regularizer": null, "kernel_constraint": null, "bias_constraint": null}, "inbound_nodes": [[["dense_13", 0, 0, {}]]]}, {"name": "reshape_14", "class_name": "Reshape", "config": {"name": "reshape_14", "trainable": true, "target_shape": [64, 1, 1]}, "inbound_nodes": [[["dense_14", 0, 0, {}]]]}, {"name": "multiply_7", "class_name": "Multiply", "config": {"name": "multiply_7", "trainable": true}, "inbound_nodes": [[["dropout_14", 0, 0, {}], ["reshape_14", 0, 0, {}]]]}, {"name": "add_7", "class_name": "Add", "config": {"name": "add_7", "trainable": true}, "inbound_nodes": [[["conv2d_16", 0, 0, {}], ["multiply_7", 0, 0, {}]]]}, {"name": "conv2d_19", "class_name": "Conv2D", "config": {"name": "conv2d_19", "trainable": true, "filters": 64, "kernel_size": [3, 3], "strides": [1, 1], "padding": "same", "data_format": "channels_first", "dilation_rate": [1, 1], "activation": "relu", "use_bias": true, "kernel_initializer": {"class_name": "VarianceScaling", "config": {"scale": 1.0, "mode": "fan_avg", "distribution": "uniform", "seed": null}}, "bias_initializer": {"class_name": "Zeros", "config": {}}, "kernel_regularizer": null, "bias_regularizer": null, "activity_regularizer": null, "kernel_constraint": null, "bias_constraint": null}, "inbound_nodes": [[["add_7", 0, 0, {}]]]}, {"name": "dropout_15", "class_name": "Dropout", "config": {"name": "dropout_15", "trainable": true, "rate": 0.3, "noise_shape": null, "seed": null}, "inbound_nodes": [[["conv2d_19", 0, 0, {}]]]}, {"name": "conv2d_20", "class_name": "Conv2D", "config": {"name": "conv2d_20", "trainable": true, "filters": 64, "kernel_size": [3, 3], "strides": [1, 1], "padding": "same", "data_format": "channels_first", "dilation_rate": [1, 1], "activation": "relu", "use_bias": true, "kernel_initializer": {"class_name": "VarianceScaling", "config": {"scale": 1.0, "mode": "fan_avg", "distribution": "uniform", "seed": null}}, "bias_initializer": {"class_name": "Zeros", "config": {}}, "kernel_regularizer": null, "bias_regularizer": null, "activity_regularizer": null, "kernel_constraint": null, "bias_constraint": null}, "inbound_nodes": [[["dropout_15", 0, 0, {}]]]}, {"name": "dropout_16", "class_name": "Dropout", "config": {"name": "dropout_16", "trainable": true, "rate": 0.3, "noise_shape": null, "seed": null}, "inbound_nodes": [[["conv2d_20", 0, 0, {}]]]}, {"name": "global_average_pooling2d_8", "class_name": "GlobalAveragePooling2D", "config": {"name": "global_average_pooling2d_8", "trainable": true, "data_format": "channels_first"}, "inbound_nodes": [[["dropout_16", 0, 0, {}]]]}, {"name": "reshape_15", "class_name": "Reshape", "config": {"name": "reshape_15", "trainable": true, "target_shape": [1, 1, 64]}, "inbound_nodes": [[["global_average_pooling2d_8", 0, 0, {}]]]}, {"name": "dense_15", "class_name": "Dense", "config": {"name": "dense_15", "trainable": true, "units": 16, "activation": "relu", "use_bias": true, "kernel_initializer": {"class_name": "VarianceScaling", "config": {"scale": 1.0, "mode": "fan_avg", "distribution": "uniform", "seed": null}}, "bias_initializer": {"class_name": "Zeros", "config": {}}, "kernel_regularizer": null, "bias_regularizer": null, "activity_regularizer": null, "kernel_constraint": null, "bias_constraint": null}, "inbound_nodes": [[["reshape_15", 0, 0, {}]]]}, {"name": "dense_16", "class_name": "Dense", "config": {"name": "dense_16", "trainable": true, "units": 64, "activation": "sigmoid", "use_bias": true, "kernel_initializer": {"class_name": "VarianceScaling", "config": {"scale": 1.0, "mode": "fan_avg", "distribution": "uniform", "seed": null}}, "bias_initializer": {"class_name": "Zeros", "config": {}}, "kernel_regularizer": null, "bias_regularizer": null, "activity_regularizer": null, "kernel_constraint": null, "bias_constraint": null}, "inbound_nodes": [[["dense_15", 0, 0, {}]]]}, {"name": "reshape_16", "class_name": "Reshape", "config": {"name": "reshape_16", "trainable": true, "target_shape": [64, 1, 1]}, "inbound_nodes": [[["dense_16", 0, 0, {}]]]}, {"name": "multiply_8", "class_name": "Multiply", "config": {"name": "multiply_8", "trainable": true}, "inbound_nodes": [[["dropout_16", 0, 0, {}], ["reshape_16", 0, 0, {}]]]}, {"name": "add_8", "class_name": "Add", "config": {"name": "add_8", "trainable": true}, "inbound_nodes": [[["add_7", 0, 0, {}], ["multiply_8", 0, 0, {}]]]}, {"name": "conv2d_transpose_2", "class_name": "Conv2DTranspose", "config": {"name": "conv2d_transpose_2", "trainable": true, "filters": 32, "kernel_size": [2, 2], "strides": [2, 2], "padding": "same", "data_format": "channels_first", "dilation_rate": [1, 1], "activation": "relu", "use_bias": true, "kernel_initializer": {"class_name": "VarianceScaling", "config": {"scale": 1.0, "mode": "fan_avg", "distribution": "uniform", "seed": null}}, "bias_initializer": {"class_name": "Zeros", "config": {}}, "kernel_regularizer": null, "bias_regularizer": null, "activity_regularizer": null, "kernel_constraint": null, "bias_constraint": null, "output_padding": null}, "inbound_nodes": [[["add_8", 0, 0, {}]]]}, {"name": "concatenate_2", "class_name": "Concatenate", "config": {"name": "concatenate_2", "trainable": true, "axis": 1}, "inbound_nodes": [[["add_2", 0, 0, {}], ["conv2d_transpose_2", 0, 0, {}]]]}, {"name": "conv2d_21", "class_name": "Conv2D", "config": {"name": "conv2d_21", "trainable": true, "filters": 32, "kernel_size": [1, 1], "strides": [1, 1], "padding": "same", "data_format": "channels_first", "dilation_rate": [1, 1], "activation": "relu", "use_bias": true, "kernel_initializer": {"class_name": "VarianceScaling", "config": {"scale": 1.0, "mode": "fan_avg", "distribution": "uniform", "seed": null}}, "bias_initializer": {"class_name": "Zeros", "config": {}}, "kernel_regularizer": null, "bias_regularizer": null, "activity_regularizer": null, "kernel_constraint": null, "bias_constraint": null}, "inbound_nodes": [[["concatenate_2", 0, 0, {}]]]}, {"name": "conv2d_22", "class_name": "Conv2D", "config": {"name": "conv2d_22", "trainable": true, "filters": 32, "kernel_size": [3, 3], "strides": [1, 1], "padding": "same", "data_format": "channels_first", "dilation_rate": [1, 1], "activation": "relu", "use_bias": true, "kernel_initializer": {"class_name": "VarianceScaling", "config": {"scale": 1.0, "mode": "fan_avg", "distribution": "uniform", "seed": null}}, "bias_initializer": {"class_name": "Zeros", "config": {}}, "kernel_regularizer": null, "bias_regularizer": null, "activity_regularizer": null, "kernel_constraint": null, "bias_constraint": null}, "inbound_nodes": [[["conv2d_21", 0, 0, {}]]]}, {"name": "dropout_17", "class_name": "Dropout", "config": {"name": "dropout_17", "trainable": true, "rate": 0.3, "noise_shape": null, "seed": null}, "inbound_nodes": [[["conv2d_22", 0, 0, {}]]]}, {"name": "conv2d_23", "class_name": "Conv2D", "config": {"name": "conv2d_23", "trainable": true, "filters": 32, "kernel_size": [3, 3], "strides": [1, 1], "padding": "same", "data_format": "channels_first", "dilation_rate": [1, 1], "activation": "relu", "use_bias": true, "kernel_initializer": {"class_name": "VarianceScaling", "config": {"scale": 1.0, "mode": "fan_avg", "distribution": "uniform", "seed": null}}, "bias_initializer": {"class_name": "Zeros", "config": {}}, "kernel_regularizer": null, "bias_regularizer": null, "activity_regularizer": null, "kernel_constraint": null, "bias_constraint": null}, "inbound_nodes": [[["dropout_17", 0, 0, {}]]]}, {"name": "dropout_18", "class_name": "Dropout", "config": {"name": "dropout_18", "trainable": true, "rate": 0.3, "noise_shape": null, "seed": null}, "inbound_nodes": [[["conv2d_23", 0, 0, {}]]]}, {"name": "global_average_pooling2d_9", "class_name": "GlobalAveragePooling2D", "config": {"name": "global_average_pooling2d_9", "trainable": true, "data_format": "channels_first"}, "inbound_nodes": [[["dropout_18", 0, 0, {}]]]}, {"name": "reshape_17", "class_name": "Reshape", "config": {"name": "reshape_17", "trainable": true, "target_shape": [1, 1, 32]}, "inbound_nodes": [[["global_average_pooling2d_9", 0, 0, {}]]]}, {"name": "dense_17", "class_name": "Dense", "config": {"name": "dense_17", "trainable": true, "units": 8, "activation": "relu", "use_bias": true, "kernel_initializer": {"class_name": "VarianceScaling", "config": {"scale": 1.0, "mode": "fan_avg", "distribution": "uniform", "seed": null}}, "bias_initializer": {"class_name": "Zeros", "config": {}}, "kernel_regularizer": null, "bias_regularizer": null, "activity_regularizer": null, "kernel_constraint": null, "bias_constraint": null}, "inbound_nodes": [[["reshape_17", 0, 0, {}]]]}, {"name": "dense_18", "class_name": "Dense", "config": {"name": "dense_18", "trainable": true, "units": 32, "activation": "sigmoid", "use_bias": true, "kernel_initializer": {"class_name": "VarianceScaling", "config": {"scale": 1.0, "mode": "fan_avg", "distribution": "uniform", "seed": null}}, "bias_initializer": {"class_name": "Zeros", "config": {}}, "kernel_regularizer": null, "bias_regularizer": null, "activity_regularizer": null, "kernel_constraint": null, "bias_constraint": null}, "inbound_nodes": [[["dense_17", 0, 0, {}]]]}, {"name": "reshape_18", "class_name": "Reshape", "config": {"name": "reshape_18", "trainable": true, "target_shape": [32, 1, 1]}, "inbound_nodes": [[["dense_18", 0, 0, {}]]]}, {"name": "multiply_9", "class_name": "Multiply", "config": {"name": "multiply_9", "trainable": true}, "inbound_nodes": [[["dropout_18", 0, 0, {}], ["reshape_18", 0, 0, {}]]]}, {"name": "add_9", "class_name": "Add", "config": {"name": "add_9", "trainable": true}, "inbound_nodes": [[["conv2d_21", 0, 0, {}], ["multiply_9", 0, 0, {}]]]}, {"name": "conv2d_24", "class_name": "Conv2D", "config": {"name": "conv2d_24", "trainable": true, "filters": 32, "kernel_size": [3, 3], "strides": [1, 1], "padding": "same", "data_format": "channels_first", "dilation_rate": [1, 1], "activation": "relu", "use_bias": true, "kernel_initializer": {"class_name": "VarianceScaling", "config": {"scale": 1.0, "mode": "fan_avg", "distribution": "uniform", "seed": null}}, "bias_initializer": {"class_name": "Zeros", "config": {}}, "kernel_regularizer": null, "bias_regularizer": null, "activity_regularizer": null, "kernel_constraint": null, "bias_constraint": null}, "inbound_nodes": [[["add_9", 0, 0, {}]]]}, {"name": "dropout_19", "class_name": "Dropout", "config": {"name": "dropout_19", "trainable": true, "rate": 0.3, "noise_shape": null, "seed": null}, "inbound_nodes": [[["conv2d_24", 0, 0, {}]]]}, {"name": "conv2d_25", "class_name": "Conv2D", "config": {"name": "conv2d_25", "trainable": true, "filters": 32, "kernel_size": [3, 3], "strides": [1, 1], "padding": "same", "data_format": "channels_first", "dilation_rate": [1, 1], "activation": "relu", "use_bias": true, "kernel_initializer": {"class_name": "VarianceScaling", "config": {"scale": 1.0, "mode": "fan_avg", "distribution": "uniform", "seed": null}}, "bias_initializer": {"class_name": "Zeros", "config": {}}, "kernel_regularizer": null, "bias_regularizer": null, "activity_regularizer": null, "kernel_constraint": null, "bias_constraint": null}, "inbound_nodes": [[["dropout_19", 0, 0, {}]]]}, {"name": "dropout_20", "class_name": "Dropout", "config": {"name": "dropout_20", "trainable": true, "rate": 0.3, "noise_shape": null, "seed": null}, "inbound_nodes": [[["conv2d_25", 0, 0, {}]]]}, {"name": "global_average_pooling2d_10", "class_name": "GlobalAveragePooling2D", "config": {"name": "global_average_pooling2d_10", "trainable": true, "data_format": "channels_first"}, "inbound_nodes": [[["dropout_20", 0, 0, {}]]]}, {"name": "reshape_19", "class_name": "Reshape", "config": {"name": "reshape_19", "trainable": true, "target_shape": [1, 1, 32]}, "inbound_nodes": [[["global_average_pooling2d_10", 0, 0, {}]]]}, {"name": "dense_19", "class_name": "Dense", "config": {"name": "dense_19", "trainable": true, "units": 8, "activation": "relu", "use_bias": true, "kernel_initializer": {"class_name": "VarianceScaling", "config": {"scale": 1.0, "mode": "fan_avg", "distribution": "uniform", "seed": null}}, "bias_initializer": {"class_name": "Zeros", "config": {}}, "kernel_regularizer": null, "bias_regularizer": null, "activity_regularizer": null, "kernel_constraint": null, "bias_constraint": null}, "inbound_nodes": [[["reshape_19", 0, 0, {}]]]}, {"name": "dense_20", "class_name": "Dense", "config": {"name": "dense_20", "trainable": true, "units": 32, "activation": "sigmoid", "use_bias": true, "kernel_initializer": {"class_name": "VarianceScaling", "config": {"scale": 1.0, "mode": "fan_avg", "distribution": "uniform", "seed": null}}, "bias_initializer": {"class_name": "Zeros", "config": {}}, "kernel_regularizer": null, "bias_regularizer": null, "activity_regularizer": null, "kernel_constraint": null, "bias_constraint": null}, "inbound_nodes": [[["dense_19", 0, 0, {}]]]}, {"name": "reshape_20", "class_name": "Reshape", "config": {"name": "reshape_20", "trainable": true, "target_shape": [32, 1, 1]}, "inbound_nodes": [[["dense_20", 0, 0, {}]]]}, {"name": "multiply_10", "class_name": "Multiply", "config": {"name": "multiply_10", "trainable": true}, "inbound_nodes": [[["dropout_20", 0, 0, {}], ["reshape_20", 0, 0, {}]]]}, {"name": "add_10", "class_name": "Add", "config": {"name": "add_10", "trainable": true}, "inbound_nodes": [[["add_9", 0, 0, {}], ["multiply_10", 0, 0, {}]]]}, {"name": "conv2d_27", "class_name": "Conv2D", "config": {"name": "conv2d_27", "trainable": true, "filters": 64, "kernel_size": [2, 2], "strides": [2, 2], "padding": "same", "data_format": "channels_first", "dilation_rate": [1, 1], "activation": "relu", "use_bias": true, "kernel_initializer": {"class_name": "VarianceScaling", "config": {"scale": 1.0, "mode": "fan_avg", "distribution": "uniform", "seed": null}}, "bias_initializer": {"class_name": "Zeros", "config": {}}, "kernel_regularizer": null, "bias_regularizer": null, "activity_regularizer": null, "kernel_constraint": null, "bias_constraint": null}, "inbound_nodes": [[["add_10", 0, 0, {}]]]}, {"name": "conv2d_28", "class_name": "Conv2D", "config": {"name": "conv2d_28", "trainable": true, "filters": 64, "kernel_size": [3, 3], "strides": [1, 1], "padding": "same", "data_format": "channels_first", "dilation_rate": [1, 1], "activation": "relu", "use_bias": true, "kernel_initializer": {"class_name": "VarianceScaling", "config": {"scale": 1.0, "mode": "fan_avg", "distribution": "uniform", "seed": null}}, "bias_initializer": {"class_name": "Zeros", "config": {}}, "kernel_regularizer": null, "bias_regularizer": null, "activity_regularizer": null, "kernel_constraint": null, "bias_constraint": null}, "inbound_nodes": [[["conv2d_27", 0, 0, {}]]]}, {"name": "dropout_21", "class_name": "Dropout", "config": {"name": "dropout_21", "trainable": true, "rate": 0.3, "noise_shape": null, "seed": null}, "inbound_nodes": [[["conv2d_28", 0, 0, {}]]]}, {"name": "conv2d_29", "class_name": "Conv2D", "config": {"name": "conv2d_29", "trainable": true, "filters": 64, "kernel_size": [3, 3], "strides": [1, 1], "padding": "same", "data_format": "channels_first", "dilation_rate": [1, 1], "activation": "relu", "use_bias": true, "kernel_initializer": {"class_name": "VarianceScaling", "config": {"scale": 1.0, "mode": "fan_avg", "distribution": "uniform", "seed": null}}, "bias_initializer": {"class_name": "Zeros", "config": {}}, "kernel_regularizer": null, "bias_regularizer": null, "activity_regularizer": null, "kernel_constraint": null, "bias_constraint": null}, "inbound_nodes": [[["dropout_21", 0, 0, {}]]]}, {"name": "dropout_22", "class_name": "Dropout", "config": {"name": "dropout_22", "trainable": true, "rate": 0.3, "noise_shape": null, "seed": null}, "inbound_nodes": [[["conv2d_29", 0, 0, {}]]]}, {"name": "global_average_pooling2d_11", "class_name": "GlobalAveragePooling2D", "config": {"name": "global_average_pooling2d_11", "trainable": true, "data_format": "channels_first"}, "inbound_nodes": [[["dropout_22", 0, 0, {}]]]}, {"name": "reshape_22", "class_name": "Reshape", "config": {"name": "reshape_22", "trainable": true, "target_shape": [1, 1, 64]}, "inbound_nodes": [[["global_average_pooling2d_11", 0, 0, {}]]]}, {"name": "dense_21", "class_name": "Dense", "config": {"name": "dense_21", "trainable": true, "units": 16, "activation": "relu", "use_bias": true, "kernel_initializer": {"class_name": "VarianceScaling", "config": {"scale": 1.0, "mode": "fan_avg", "distribution": "uniform", "seed": null}}, "bias_initializer": {"class_name": "Zeros", "config": {}}, "kernel_regularizer": null, "bias_regularizer": null, "activity_regularizer": null, "kernel_constraint": null, "bias_constraint": null}, "inbound_nodes": [[["reshape_22", 0, 0, {}]]]}, {"name": "dense_22", "class_name": "Dense", "config": {"name": "dense_22", "trainable": true, "units": 64, "activation": "sigmoid", "use_bias": true, "kernel_initializer": {"class_name": "VarianceScaling", "config": {"scale": 1.0, "mode": "fan_avg", "distribution": "uniform", "seed": null}}, "bias_initializer": {"class_name": "Zeros", "config": {}}, "kernel_regularizer": null, "bias_regularizer": null, "activity_regularizer": null, "kernel_constraint": null, "bias_constraint": null}, "inbound_nodes": [[["dense_21", 0, 0, {}]]]}, {"name": "reshape_23", "class_name": "Reshape", "config": {"name": "reshape_23", "trainable": true, "target_shape": [64, 1, 1]}, "inbound_nodes": [[["dense_22", 0, 0, {}]]]}, {"name": "multiply_11", "class_name": "Multiply", "config": {"name": "multiply_11", "trainable": true}, "inbound_nodes": [[["dropout_22", 0, 0, {}], ["reshape_23", 0, 0, {}]]]}, {"name": "add_11", "class_name": "Add", "config": {"name": "add_11", "trainable": true}, "inbound_nodes": [[["conv2d_27", 0, 0, {}], ["multiply_11", 0, 0, {}]]]}, {"name": "conv2d_30", "class_name": "Conv2D", "config": {"name": "conv2d_30", "trainable": true, "filters": 64, "kernel_size": [3, 3], "strides": [1, 1], "padding": "same", "data_format": "channels_first", "dilation_rate": [1, 1], "activation": "relu", "use_bias": true, "kernel_initializer": {"class_name": "VarianceScaling", "config": {"scale": 1.0, "mode": "fan_avg", "distribution": "uniform", "seed": null}}, "bias_initializer": {"class_name": "Zeros", "config": {}}, "kernel_regularizer": null, "bias_regularizer": null, "activity_regularizer": null, "kernel_constraint": null, "bias_constraint": null}, "inbound_nodes": [[["add_11", 0, 0, {}]]]}, {"name": "dropout_23", "class_name": "Dropout", "config": {"name": "dropout_23", "trainable": true, "rate": 0.3, "noise_shape": null, "seed": null}, "inbound_nodes": [[["conv2d_30", 0, 0, {}]]]}, {"name": "conv2d_31", "class_name": "Conv2D", "config": {"name": "conv2d_31", "trainable": true, "filters": 64, "kernel_size": [3, 3], "strides": [1, 1], "padding": "same", "data_format": "channels_first", "dilation_rate": [1, 1], "activation": "relu", "use_bias": true, "kernel_initializer": {"class_name": "VarianceScaling", "config": {"scale": 1.0, "mode": "fan_avg", "distribution": "uniform", "seed": null}}, "bias_initializer": {"class_name": "Zeros", "config": {}}, "kernel_regularizer": null, "bias_regularizer": null, "activity_regularizer": null, "kernel_constraint": null, "bias_constraint": null}, "inbound_nodes": [[["dropout_23", 0, 0, {}]]]}, {"name": "dropout_24", "class_name": "Dropout", "config": {"name": "dropout_24", "trainable": true, "rate": 0.3, "noise_shape": null, "seed": null}, "inbound_nodes": [[["conv2d_31", 0, 0, {}]]]}, {"name": "global_average_pooling2d_12", "class_name": "GlobalAveragePooling2D", "config": {"name": "global_average_pooling2d_12", "trainable": true, "data_format": "channels_first"}, "inbound_nodes": [[["dropout_24", 0, 0, {}]]]}, {"name": "reshape_24", "class_name": "Reshape", "config": {"name": "reshape_24", "trainable": true, "target_shape": [1, 1, 64]}, "inbound_nodes": [[["global_average_pooling2d_12", 0, 0, {}]]]}, {"name": "dense_23", "class_name": "Dense", "config": {"name": "dense_23", "trainable": true, "units": 16, "activation": "relu", "use_bias": true, "kernel_initializer": {"class_name": "VarianceScaling", "config": {"scale": 1.0, "mode": "fan_avg", "distribution": "uniform", "seed": null}}, "bias_initializer": {"class_name": "Zeros", "config": {}}, "kernel_regularizer": null, "bias_regularizer": null, "activity_regularizer": null, "kernel_constraint": null, "bias_constraint": null}, "inbound_nodes": [[["reshape_24", 0, 0, {}]]]}, {"name": "dense_24", "class_name": "Dense", "config": {"name": "dense_24", "trainable": true, "units": 64, "activation": "sigmoid", "use_bias": true, "kernel_initializer": {"class_name": "VarianceScaling", "config": {"scale": 1.0, "mode": "fan_avg", "distribution": "uniform", "seed": null}}, "bias_initializer": {"class_name": "Zeros", "config": {}}, "kernel_regularizer": null, "bias_regularizer": null, "activity_regularizer": null, "kernel_constraint": null, "bias_constraint": null}, "inbound_nodes": [[["dense_23", 0, 0, {}]]]}, {"name": "reshape_25", "class_name": "Reshape", "config": {"name": "reshape_25", "trainable": true, "target_shape": [64, 1, 1]}, "inbound_nodes": [[["dense_24", 0, 0, {}]]]}, {"name": "multiply_12", "class_name": "Multiply", "config": {"name": "multiply_12", "trainable": true}, "inbound_nodes": [[["dropout_24", 0, 0, {}], ["reshape_25", 0, 0, {}]]]}, {"name": "add_12", "class_name": "Add", "config": {"name": "add_12", "trainable": true}, "inbound_nodes": [[["add_11", 0, 0, {}], ["multiply_12", 0, 0, {}]]]}, {"name": "conv2d_32", "class_name": "Conv2D", "config": {"name": "conv2d_32", "trainable": true, "filters": 128, "kernel_size": [2, 2], "strides": [2, 2], "padding": "same", "data_format": "channels_first", "dilation_rate": [1, 1], "activation": "relu", "use_bias": true, "kernel_initializer": {"class_name": "VarianceScaling", "config": {"scale": 1.0, "mode": "fan_avg", "distribution": "uniform", "seed": null}}, "bias_initializer": {"class_name": "Zeros", "config": {}}, "kernel_regularizer": null, "bias_regularizer": null, "activity_regularizer": null, "kernel_constraint": null, "bias_constraint": null}, "inbound_nodes": [[["add_12", 0, 0, {}]]]}, {"name": "conv2d_33", "class_name": "Conv2D", "config": {"name": "conv2d_33", "trainable": true, "filters": 128, "kernel_size": [3, 3], "strides": [1, 1], "padding": "same", "data_format": "channels_first", "dilation_rate": [1, 1], "activation": "relu", "use_bias": true, "kernel_initializer": {"class_name": "VarianceScaling", "config": {"scale": 1.0, "mode": "fan_avg", "distribution": "uniform", "seed": null}}, "bias_initializer": {"class_name": "Zeros", "config": {}}, "kernel_regularizer": null, "bias_regularizer": null, "activity_regularizer": null, "kernel_constraint": null, "bias_constraint": null}, "inbound_nodes": [[["conv2d_32", 0, 0, {}]]]}, {"name": "dropout_25", "class_name": "Dropout", "config": {"name": "dropout_25", "trainable": true, "rate": 0.3, "noise_shape": null, "seed": null}, "inbound_nodes": [[["conv2d_33", 0, 0, {}]]]}, {"name": "conv2d_34", "class_name": "Conv2D", "config": {"name": "conv2d_34", "trainable": true, "filters": 128, "kernel_size": [3, 3], "strides": [1, 1], "padding": "same", "data_format": "channels_first", "dilation_rate": [1, 1], "activation": "relu", "use_bias": true, "kernel_initializer": {"class_name": "VarianceScaling", "config": {"scale": 1.0, "mode": "fan_avg", "distribution": "uniform", "seed": null}}, "bias_initializer": {"class_name": "Zeros", "config": {}}, "kernel_regularizer": null, "bias_regularizer": null, "activity_regularizer": null, "kernel_constraint": null, "bias_constraint": null}, "inbound_nodes": [[["dropout_25", 0, 0, {}]]]}, {"name": "dropout_26", "class_name": "Dropout", "config": {"name": "dropout_26", "trainable": true, "rate": 0.3, "noise_shape": null, "seed": null}, "inbound_nodes": [[["conv2d_34", 0, 0, {}]]]}, {"name": "global_average_pooling2d_13", "class_name": "GlobalAveragePooling2D", "config": {"name": "global_average_pooling2d_13", "trainable": true, "data_format": "channels_first"}, "inbound_nodes": [[["dropout_26", 0, 0, {}]]]}, {"name": "reshape_26", "class_name": "Reshape", "config": {"name": "reshape_26", "trainable": true, "target_shape": [1, 1, 128]}, "inbound_nodes": [[["global_average_pooling2d_13", 0, 0, {}]]]}, {"name": "dense_25", "class_name": "Dense", "config": {"name": "dense_25", "trainable": true, "units": 32, "activation": "relu", "use_bias": true, "kernel_initializer": {"class_name": "VarianceScaling", "config": {"scale": 1.0, "mode": "fan_avg", "distribution": "uniform", "seed": null}}, "bias_initializer": {"class_name": "Zeros", "config": {}}, "kernel_regularizer": null, "bias_regularizer": null, "activity_regularizer": null, "kernel_constraint": null, "bias_constraint": null}, "inbound_nodes": [[["reshape_26", 0, 0, {}]]]}, {"name": "dense_26", "class_name": "Dense", "config": {"name": "dense_26", "trainable": true, "units": 128, "activation": "sigmoid", "use_bias": true, "kernel_initializer": {"class_name": "VarianceScaling", "config": {"scale": 1.0, "mode": "fan_avg", "distribution": "uniform", "seed": null}}, "bias_initializer": {"class_name": "Zeros", "config": {}}, "kernel_regularizer": null, "bias_regularizer": null, "activity_regularizer": null, "kernel_constraint": null, "bias_constraint": null}, "inbound_nodes": [[["dense_25", 0, 0, {}]]]}, {"name": "reshape_27", "class_name": "Reshape", "config": {"name": "reshape_27", "trainable": true, "target_shape": [128, 1, 1]}, "inbound_nodes": [[["dense_26", 0, 0, {}]]]}, {"name": "multiply_13", "class_name": "Multiply", "config": {"name": "multiply_13", "trainable": true}, "inbound_nodes": [[["dropout_26", 0, 0, {}], ["reshape_27", 0, 0, {}]]]}, {"name": "add_13", "class_name": "Add", "config": {"name": "add_13", "trainable": true}, "inbound_nodes": [[["conv2d_32", 0, 0, {}], ["multiply_13", 0, 0, {}]]]}, {"name": "conv2d_35", "class_name": "Conv2D", "config": {"name": "conv2d_35", "trainable": true, "filters": 128, "kernel_size": [3, 3], "strides": [1, 1], "padding": "same", "data_format": "channels_first", "dilation_rate": [1, 1], "activation": "relu", "use_bias": true, "kernel_initializer": {"class_name": "VarianceScaling", "config": {"scale": 1.0, "mode": "fan_avg", "distribution": "uniform", "seed": null}}, "bias_initializer": {"class_name": "Zeros", "config": {}}, "kernel_regularizer": null, "bias_regularizer": null, "activity_regularizer": null, "kernel_constraint": null, "bias_constraint": null}, "inbound_nodes": [[["add_13", 0, 0, {}]]]}, {"name": "dropout_27", "class_name": "Dropout", "config": {"name": "dropout_27", "trainable": true, "rate": 0.3, "noise_shape": null, "seed": null}, "inbound_nodes": [[["conv2d_35", 0, 0, {}]]]}, {"name": "conv2d_36", "class_name": "Conv2D", "config": {"name": "conv2d_36", "trainable": true, "filters": 128, "kernel_size": [3, 3], "strides": [1, 1], "padding": "same", "data_format": "channels_first", "dilation_rate": [1, 1], "activation": "relu", "use_bias": true, "kernel_initializer": {"class_name": "VarianceScaling", "config": {"scale": 1.0, "mode": "fan_avg", "distribution": "uniform", "seed": null}}, "bias_initializer": {"class_name": "Zeros", "config": {}}, "kernel_regularizer": null, "bias_regularizer": null, "activity_regularizer": null, "kernel_constraint": null, "bias_constraint": null}, "inbound_nodes": [[["dropout_27", 0, 0, {}]]]}, {"name": "dropout_28", "class_name": "Dropout", "config": {"name": "dropout_28", "trainable": true, "rate": 0.3, "noise_shape": null, "seed": null}, "inbound_nodes": [[["conv2d_36", 0, 0, {}]]]}, {"name": "global_average_pooling2d_14", "class_name": "GlobalAveragePooling2D", "config": {"name": "global_average_pooling2d_14", "trainable": true, "data_format": "channels_first"}, "inbound_nodes": [[["dropout_28", 0, 0, {}]]]}, {"name": "reshape_28", "class_name": "Reshape", "config": {"name": "reshape_28", "trainable": true, "target_shape": [1, 1, 128]}, "inbound_nodes": [[["global_average_pooling2d_14", 0, 0, {}]]]}, {"name": "dense_27", "class_name": "Dense", "config": {"name": "dense_27", "trainable": true, "units": 32, "activation": "relu", "use_bias": true, "kernel_initializer": {"class_name": "VarianceScaling", "config": {"scale": 1.0, "mode": "fan_avg", "distribution": "uniform", "seed": null}}, "bias_initializer": {"class_name": "Zeros", "config": {}}, "kernel_regularizer": null, "bias_regularizer": null, "activity_regularizer": null, "kernel_constraint": null, "bias_constraint": null}, "inbound_nodes": [[["reshape_28", 0, 0, {}]]]}, {"name": "dense_28", "class_name": "Dense", "config": {"name": "dense_28", "trainable": true, "units": 128, "activation": "sigmoid", "use_bias": true, "kernel_initializer": {"class_name": "VarianceScaling", "config": {"scale": 1.0, "mode": "fan_avg", "distribution": "uniform", "seed": null}}, "bias_initializer": {"class_name": "Zeros", "config": {}}, "kernel_regularizer": null, "bias_regularizer": null, "activity_regularizer": null, "kernel_constraint": null, "bias_constraint": null}, "inbound_nodes": [[["dense_27", 0, 0, {}]]]}, {"name": "reshape_29", "class_name": "Reshape", "config": {"name": "reshape_29", "trainable": true, "target_shape": [128, 1, 1]}, "inbound_nodes": [[["dense_28", 0, 0, {}]]]}, {"name": "multiply_14", "class_name": "Multiply", "config": {"name": "multiply_14", "trainable": true}, "inbound_nodes": [[["dropout_28", 0, 0, {}], ["reshape_29", 0, 0, {}]]]}, {"name": "add_14", "class_name": "Add", "config": {"name": "add_14", "trainable": true}, "inbound_nodes": [[["multiply_14", 0, 0, {}], ["add_13", 0, 0, {}]]]}, {"name": "conv2d_transpose_3", "class_name": "Conv2DTranspose", "config": {"name": "conv2d_transpose_3", "trainable": true, "filters": 64, "kernel_size": [2, 2], "strides": [2, 2], "padding": "same", "data_format": "channels_first", "dilation_rate": [1, 1], "activation": "relu", "use_bias": true, "kernel_initializer": {"class_name": "VarianceScaling", "config": {"scale": 1.0, "mode": "fan_avg", "distribution": "uniform", "seed": null}}, "bias_initializer": {"class_name": "Zeros", "config": {}}, "kernel_regularizer": null, "bias_regularizer": null, "activity_regularizer": null, "kernel_constraint": null, "bias_constraint": null, "output_padding": null}, "inbound_nodes": [[["add_14", 0, 0, {}]]]}, {"name": "concatenate_3", "class_name": "Concatenate", "config": {"name": "concatenate_3", "trainable": true, "axis": 1}, "inbound_nodes": [[["add_12", 0, 0, {}], ["conv2d_transpose_3", 0, 0, {}]]]}, {"name": "conv2d_37", "class_name": "Conv2D", "config": {"name": "conv2d_37", "trainable": true, "filters": 64, "kernel_size": [1, 1], "strides": [1, 1], "padding": "same", "data_format": "channels_first", "dilation_rate": [1, 1], "activation": "relu", "use_bias": true, "kernel_initializer": {"class_name": "VarianceScaling", "config": {"scale": 1.0, "mode": "fan_avg", "distribution": "uniform", "seed": null}}, "bias_initializer": {"class_name": "Zeros", "config": {}}, "kernel_regularizer": null, "bias_regularizer": null, "activity_regularizer": null, "kernel_constraint": null, "bias_constraint": null}, "inbound_nodes": [[["concatenate_3", 0, 0, {}]]]}, {"name": "conv2d_38", "class_name": "Conv2D", "config": {"name": "conv2d_38", "trainable": true, "filters": 64, "kernel_size": [3, 3], "strides": [1, 1], "padding": "same", "data_format": "channels_first", "dilation_rate": [1, 1], "activation": "relu", "use_bias": true, "kernel_initializer": {"class_name": "VarianceScaling", "config": {"scale": 1.0, "mode": "fan_avg", "distribution": "uniform", "seed": null}}, "bias_initializer": {"class_name": "Zeros", "config": {}}, "kernel_regularizer": null, "bias_regularizer": null, "activity_regularizer": null, "kernel_constraint": null, "bias_constraint": null}, "inbound_nodes": [[["conv2d_37", 0, 0, {}]]]}, {"name": "dropout_29", "class_name": "Dropout", "config": {"name": "dropout_29", "trainable": true, "rate": 0.3, "noise_shape": null, "seed": null}, "inbound_nodes": [[["conv2d_38", 0, 0, {}]]]}, {"name": "conv2d_39", "class_name": "Conv2D", "config": {"name": "conv2d_39", "trainable": true, "filters": 64, "kernel_size": [3, 3], "strides": [1, 1], "padding": "same", "data_format": "channels_first", "dilation_rate": [1, 1], "activation": "relu", "use_bias": true, "kernel_initializer": {"class_name": "VarianceScaling", "config": {"scale": 1.0, "mode": "fan_avg", "distribution": "uniform", "seed": null}}, "bias_initializer": {"class_name": "Zeros", "config": {}}, "kernel_regularizer": null, "bias_regularizer": null, "activity_regularizer": null, "kernel_constraint": null, "bias_constraint": null}, "inbound_nodes": [[["dropout_29", 0, 0, {}]]]}, {"name": "dropout_30", "class_name": "Dropout", "config": {"name": "dropout_30", "trainable": true, "rate": 0.3, "noise_shape": null, "seed": null}, "inbound_nodes": [[["conv2d_39", 0, 0, {}]]]}, {"name": "global_average_pooling2d_15", "class_name": "GlobalAveragePooling2D", "config": {"name": "global_average_pooling2d_15", "trainable": true, "data_format": "channels_first"}, "inbound_nodes": [[["dropout_30", 0, 0, {}]]]}, {"name": "reshape_30", "class_name": "Reshape", "config": {"name": "reshape_30", "trainable": true, "target_shape": [1, 1, 64]}, "inbound_nodes": [[["global_average_pooling2d_15", 0, 0, {}]]]}, {"name": "dense_29", "class_name": "Dense", "config": {"name": "dense_29", "trainable": true, "units": 16, "activation": "relu", "use_bias": true, "kernel_initializer": {"class_name": "VarianceScaling", "config": {"scale": 1.0, "mode": "fan_avg", "distribution": "uniform", "seed": null}}, "bias_initializer": {"class_name": "Zeros", "config": {}}, "kernel_regularizer": null, "bias_regularizer": null, "activity_regularizer": null, "kernel_constraint": null, "bias_constraint": null}, "inbound_nodes": [[["reshape_30", 0, 0, {}]]]}, {"name": "dense_30", "class_name": "Dense", "config": {"name": "dense_30", "trainable": true, "units": 64, "activation": "sigmoid", "use_bias": true, "kernel_initializer": {"class_name": "VarianceScaling", "config": {"scale": 1.0, "mode": "fan_avg", "distribution": "uniform", "seed": null}}, "bias_initializer": {"class_name": "Zeros", "config": {}}, "kernel_regularizer": null, "bias_regularizer": null, "activity_regularizer": null, "kernel_constraint": null, "bias_constraint": null}, "inbound_nodes": [[["dense_29", 0, 0, {}]]]}, {"name": "reshape_31", "class_name": "Reshape", "config": {"name": "reshape_31", "trainable": true, "target_shape": [64, 1, 1]}, "inbound_nodes": [[["dense_30", 0, 0, {}]]]}, {"name": "multiply_15", "class_name": "Multiply", "config": {"name": "multiply_15", "trainable": true}, "inbound_nodes": [[["dropout_30", 0, 0, {}], ["reshape_31", 0, 0, {}]]]}, {"name": "add_15", "class_name": "Add", "config": {"name": "add_15", "trainable": true}, "inbound_nodes": [[["conv2d_37", 0, 0, {}], ["multiply_15", 0, 0, {}]]]}, {"name": "conv2d_40", "class_name": "Conv2D", "config": {"name": "conv2d_40", "trainable": true, "filters": 64, "kernel_size": [3, 3], "strides": [1, 1], "padding": "same", "data_format": "channels_first", "dilation_rate": [1, 1], "activation": "relu", "use_bias": true, "kernel_initializer": {"class_name": "VarianceScaling", "config": {"scale": 1.0, "mode": "fan_avg", "distribution": "uniform", "seed": null}}, "bias_initializer": {"class_name": "Zeros", "config": {}}, "kernel_regularizer": null, "bias_regularizer": null, "activity_regularizer": null, "kernel_constraint": null, "bias_constraint": null}, "inbound_nodes": [[["add_15", 0, 0, {}]]]}, {"name": "dropout_31", "class_name": "Dropout", "config": {"name": "dropout_31", "trainable": true, "rate": 0.3, "noise_shape": null, "seed": null}, "inbound_nodes": [[["conv2d_40", 0, 0, {}]]]}, {"name": "conv2d_41", "class_name": "Conv2D", "config": {"name": "conv2d_41", "trainable": true, "filters": 64, "kernel_size": [3, 3], "strides": [1, 1], "padding": "same", "data_format": "channels_first", "dilation_rate": [1, 1], "activation": "relu", "use_bias": true, "kernel_initializer": {"class_name": "VarianceScaling", "config": {"scale": 1.0, "mode": "fan_avg", "distribution": "uniform", "seed": null}}, "bias_initializer": {"class_name": "Zeros", "config": {}}, "kernel_regularizer": null, "bias_regularizer": null, "activity_regularizer": null, "kernel_constraint": null, "bias_constraint": null}, "inbound_nodes": [[["dropout_31", 0, 0, {}]]]}, {"name": "dropout_32", "class_name": "Dropout", "config": {"name": "dropout_32", "trainable": true, "rate": 0.3, "noise_shape": null, "seed": null}, "inbound_nodes": [[["conv2d_41", 0, 0, {}]]]}, {"name": "global_average_pooling2d_16", "class_name": "GlobalAveragePooling2D", "config": {"name": "global_average_pooling2d_16", "trainable": true, "data_format": "channels_first"}, "inbound_nodes": [[["dropout_32", 0, 0, {}]]]}, {"name": "reshape_32", "class_name": "Reshape", "config": {"name": "reshape_32", "trainable": true, "target_shape": [1, 1, 64]}, "inbound_nodes": [[["global_average_pooling2d_16", 0, 0, {}]]]}, {"name": "dense_31", "class_name": "Dense", "config": {"name": "dense_31", "trainable": true, "units": 16, "activation": "relu", "use_bias": true, "kernel_initializer": {"class_name": "VarianceScaling", "config": {"scale": 1.0, "mode": "fan_avg", "distribution": "uniform", "seed": null}}, "bias_initializer": {"class_name": "Zeros", "config": {}}, "kernel_regularizer": null, "bias_regularizer": null, "activity_regularizer": null, "kernel_constraint": null, "bias_constraint": null}, "inbound_nodes": [[["reshape_32", 0, 0, {}]]]}, {"name": "dense_32", "class_name": "Dense", "config": {"name": "dense_32", "trainable": true, "units": 64, "activation": "sigmoid", "use_bias": true, "kernel_initializer": {"class_name": "VarianceScaling", "config": {"scale": 1.0, "mode": "fan_avg", "distribution": "uniform", "seed": null}}, "bias_initializer": {"class_name": "Zeros", "config": {}}, "kernel_regularizer": null, "bias_regularizer": null, "activity_regularizer": null, "kernel_constraint": null, "bias_constraint": null}, "inbound_nodes": [[["dense_31", 0, 0, {}]]]}, {"name": "reshape_33", "class_name": "Reshape", "config": {"name": "reshape_33", "trainable": true, "target_shape": [64, 1, 1]}, "inbound_nodes": [[["dense_32", 0, 0, {}]]]}, {"name": "multiply_16", "class_name": "Multiply", "config": {"name": "multiply_16", "trainable": true}, "inbound_nodes": [[["dropout_32", 0, 0, {}], ["reshape_33", 0, 0, {}]]]}, {"name": "add_16", "class_name": "Add", "config": {"name": "add_16", "trainable": true}, "inbound_nodes": [[["add_15", 0, 0, {}], ["multiply_16", 0, 0, {}]]]}, {"name": "conv2d_transpose_4", "class_name": "Conv2DTranspose", "config": {"name": "conv2d_transpose_4", "trainable": true, "filters": 32, "kernel_size": [2, 2], "strides": [2, 2], "padding": "same", "data_format": "channels_first", "dilation_rate": [1, 1], "activation": "relu", "use_bias": true, "kernel_initializer": {"class_name": "VarianceScaling", "config": {"scale": 1.0, "mode": "fan_avg", "distribution": "uniform", "seed": null}}, "bias_initializer": {"class_name": "Zeros", "config": {}}, "kernel_regularizer": null, "bias_regularizer": null, "activity_regularizer": null, "kernel_constraint": null, "bias_constraint": null, "output_padding": null}, "inbound_nodes": [[["add_16", 0, 0, {}]]]}, {"name": "concatenate_4", "class_name": "Concatenate", "config": {"name": "concatenate_4", "trainable": true, "axis": 1}, "inbound_nodes": [[["add_10", 0, 0, {}], ["conv2d_transpose_4", 0, 0, {}]]]}, {"name": "conv2d_42", "class_name": "Conv2D", "config": {"name": "conv2d_42", "trainable": true, "filters": 32, "kernel_size": [1, 1], "strides": [1, 1], "padding": "same", "data_format": "channels_first", "dilation_rate": [1, 1], "activation": "relu", "use_bias": true, "kernel_initializer": {"class_name": "VarianceScaling", "config": {"scale": 1.0, "mode": "fan_avg", "distribution": "uniform", "seed": null}}, "bias_initializer": {"class_name": "Zeros", "config": {}}, "kernel_regularizer": null, "bias_regularizer": null, "activity_regularizer": null, "kernel_constraint": null, "bias_constraint": null}, "inbound_nodes": [[["concatenate_4", 0, 0, {}]]]}, {"name": "conv2d_43", "class_name": "Conv2D", "config": {"name": "conv2d_43", "trainable": true, "filters": 32, "kernel_size": [3, 3], "strides": [1, 1], "padding": "same", "data_format": "channels_first", "dilation_rate": [1, 1], "activation": "relu", "use_bias": true, "kernel_initializer": {"class_name": "VarianceScaling", "config": {"scale": 1.0, "mode": "fan_avg", "distribution": "uniform", "seed": null}}, "bias_initializer": {"class_name": "Zeros", "config": {}}, "kernel_regularizer": null, "bias_regularizer": null, "activity_regularizer": null, "kernel_constraint": null, "bias_constraint": null}, "inbound_nodes": [[["conv2d_42", 0, 0, {}]]]}, {"name": "dropout_33", "class_name": "Dropout", "config": {"name": "dropout_33", "trainable": true, "rate": 0.3, "noise_shape": null, "seed": null}, "inbound_nodes": [[["conv2d_43", 0, 0, {}]]]}, {"name": "conv2d_44", "class_name": "Conv2D", "config": {"name": "conv2d_44", "trainable": true, "filters": 32, "kernel_size": [3, 3], "strides": [1, 1], "padding": "same", "data_format": "channels_first", "dilation_rate": [1, 1], "activation": "relu", "use_bias": true, "kernel_initializer": {"class_name": "VarianceScaling", "config": {"scale": 1.0, "mode": "fan_avg", "distribution": "uniform", "seed": null}}, "bias_initializer": {"class_name": "Zeros", "config": {}}, "kernel_regularizer": null, "bias_regularizer": null, "activity_regularizer": null, "kernel_constraint": null, "bias_constraint": null}, "inbound_nodes": [[["dropout_33", 0, 0, {}]]]}, {"name": "dropout_34", "class_name": "Dropout", "config": {"name": "dropout_34", "trainable": true, "rate": 0.3, "noise_shape": null, "seed": null}, "inbound_nodes": [[["conv2d_44", 0, 0, {}]]]}, {"name": "global_average_pooling2d_17", "class_name": "GlobalAveragePooling2D", "config": {"name": "global_average_pooling2d_17", "trainable": true, "data_format": "channels_first"}, "inbound_nodes": [[["dropout_34", 0, 0, {}]]]}, {"name": "reshape_34", "class_name": "Reshape", "config": {"name": "reshape_34", "trainable": true, "target_shape": [1, 1, 32]}, "inbound_nodes": [[["global_average_pooling2d_17", 0, 0, {}]]]}, {"name": "dense_33", "class_name": "Dense", "config": {"name": "dense_33", "trainable": true, "units": 8, "activation": "relu", "use_bias": true, "kernel_initializer": {"class_name": "VarianceScaling", "config": {"scale": 1.0, "mode": "fan_avg", "distribution": "uniform", "seed": null}}, "bias_initializer": {"class_name": "Zeros", "config": {}}, "kernel_regularizer": null, "bias_regularizer": null, "activity_regularizer": null, "kernel_constraint": null, "bias_constraint": null}, "inbound_nodes": [[["reshape_34", 0, 0, {}]]]}, {"name": "dense_34", "class_name": "Dense", "config": {"name": "dense_34", "trainable": true, "units": 32, "activation": "sigmoid", "use_bias": true, "kernel_initializer": {"class_name": "VarianceScaling", "config": {"scale": 1.0, "mode": "fan_avg", "distribution": "uniform", "seed": null}}, "bias_initializer": {"class_name": "Zeros", "config": {}}, "kernel_regularizer": null, "bias_regularizer": null, "activity_regularizer": null, "kernel_constraint": null, "bias_constraint": null}, "inbound_nodes": [[["dense_33", 0, 0, {}]]]}, {"name": "reshape_35", "class_name": "Reshape", "config": {"name": "reshape_35", "trainable": true, "target_shape": [32, 1, 1]}, "inbound_nodes": [[["dense_34", 0, 0, {}]]]}, {"name": "multiply_17", "class_name": "Multiply", "config": {"name": "multiply_17", "trainable": true}, "inbound_nodes": [[["dropout_34", 0, 0, {}], ["reshape_35", 0, 0, {}]]]}, {"name": "add_17", "class_name": "Add", "config": {"name": "add_17", "trainable": true}, "inbound_nodes": [[["conv2d_42", 0, 0, {}], ["multiply_17", 0, 0, {}]]]}, {"name": "conv2d_45", "class_name": "Conv2D", "config": {"name": "conv2d_45", "trainable": true, "filters": 32, "kernel_size": [3, 3], "strides": [1, 1], "padding": "same", "data_format": "channels_first", "dilation_rate": [1, 1], "activation": "relu", "use_bias": true, "kernel_initializer": {"class_name": "VarianceScaling", "config": {"scale": 1.0, "mode": "fan_avg", "distribution": "uniform", "seed": null}}, "bias_initializer": {"class_name": "Zeros", "config": {}}, "kernel_regularizer": null, "bias_regularizer": null, "activity_regularizer": null, "kernel_constraint": null, "bias_constraint": null}, "inbound_nodes": [[["add_17", 0, 0, {}]]]}, {"name": "dropout_35", "class_name": "Dropout", "config": {"name": "dropout_35", "trainable": true, "rate": 0.3, "noise_shape": null, "seed": null}, "inbound_nodes": [[["conv2d_45", 0, 0, {}]]]}, {"name": "conv2d_46", "class_name": "Conv2D", "config": {"name": "conv2d_46", "trainable": true, "filters": 32, "kernel_size": [3, 3], "strides": [1, 1], "padding": "same", "data_format": "channels_first", "dilation_rate": [1, 1], "activation": "relu", "use_bias": true, "kernel_initializer": {"class_name": "VarianceScaling", "config": {"scale": 1.0, "mode": "fan_avg", "distribution": "uniform", "seed": null}}, "bias_initializer": {"class_name": "Zeros", "config": {}}, "kernel_regularizer": null, "bias_regularizer": null, "activity_regularizer": null, "kernel_constraint": null, "bias_constraint": null}, "inbound_nodes": [[["dropout_35", 0, 0, {}]]]}, {"name": "dropout_36", "class_name": "Dropout", "config": {"name": "dropout_36", "trainable": true, "rate": 0.3, "noise_shape": null, "seed": null}, "inbound_nodes": [[["conv2d_46", 0, 0, {}]]]}, {"name": "global_average_pooling2d_18", "class_name": "GlobalAveragePooling2D", "config": {"name": "global_average_pooling2d_18", "trainable": true, "data_format": "channels_first"}, "inbound_nodes": [[["dropout_36", 0, 0, {}]]]}, {"name": "reshape_36", "class_name": "Reshape", "config": {"name": "reshape_36", "trainable": true, "target_shape": [1, 1, 32]}, "inbound_nodes": [[["global_average_pooling2d_18", 0, 0, {}]]]}, {"name": "dense_35", "class_name": "Dense", "config": {"name": "dense_35", "trainable": true, "units": 8, "activation": "relu", "use_bias": true, "kernel_initializer": {"class_name": "VarianceScaling", "config": {"scale": 1.0, "mode": "fan_avg", "distribution": "uniform", "seed": null}}, "bias_initializer": {"class_name": "Zeros", "config": {}}, "kernel_regularizer": null, "bias_regularizer": null, "activity_regularizer": null, "kernel_constraint": null, "bias_constraint": null}, "inbound_nodes": [[["reshape_36", 0, 0, {}]]]}, {"name": "dense_36", "class_name": "Dense", "config": {"name": "dense_36", "trainable": true, "units": 32, "activation": "sigmoid", "use_bias": true, "kernel_initializer": {"class_name": "VarianceScaling", "config": {"scale": 1.0, "mode": "fan_avg", "distribution": "uniform", "seed": null}}, "bias_initializer": {"class_name": "Zeros", "config": {}}, "kernel_regularizer": null, "bias_regularizer": null, "activity_regularizer": null, "kernel_constraint": null, "bias_constraint": null}, "inbound_nodes": [[["dense_35", 0, 0, {}]]]}, {"name": "reshape_37", "class_name": "Reshape", "config": {"name": "reshape_37", "trainable": true, "target_shape": [32, 1, 1]}, "inbound_nodes": [[["dense_36", 0, 0, {}]]]}, {"name": "multiply_18", "class_name": "Multiply", "config": {"name": "multiply_18", "trainable": true}, "inbound_nodes": [[["dropout_36", 0, 0, {}], ["reshape_37", 0, 0, {}]]]}, {"name": "add_18", "class_name": "Add", "config": {"name": "add_18", "trainable": true}, "inbound_nodes": [[["add_17", 0, 0, {}], ["multiply_18", 0, 0, {}]]]}, {"name": "conv2d_47", "class_name": "Conv2D", "config": {"name": "conv2d_47", "trainable": true, "filters": 2, "kernel_size": [1, 1], "strides": [1, 1], "padding": "same", "data_format": "channels_first", "dilation_rate": [1, 1], "activation": "relu", "use_bias": true, "kernel_initializer": {"class_name": "VarianceScaling", "config": {"scale": 1.0, "mode": "fan_avg", "distribution": "uniform", "seed": null}}, "bias_initializer": {"class_name": "Zeros", "config": {}}, "kernel_regularizer": null, "bias_regularizer": null, "activity_regularizer": null, "kernel_constraint": null, "bias_constraint": null}, "inbound_nodes": [[["add_18", 0, 0, {}]]]}, {"name": "conv2d_26", "class_name": "Conv2D", "config": {"name": "conv2d_26", "trainable": true, "filters": 2, "kernel_size": [1, 1], "strides": [1, 1], "padding": "same", "data_format": "channels_first", "dilation_rate": [1, 1], "activation": "relu", "use_bias": true, "kernel_initializer": {"class_name": "VarianceScaling", "config": {"scale": 1.0, "mode": "fan_avg", "distribution": "uniform", "seed": null}}, "bias_initializer": {"class_name": "Zeros", "config": {}}, "kernel_regularizer": null, "bias_regularizer": null, "activity_regularizer": null, "kernel_constraint": null, "bias_constraint": null}, "inbound_nodes": [[["add_10", 0, 0, {}]]]}, {"name": "reshape_38", "class_name": "Reshape", "config": {"name": "reshape_38", "trainable": true, "target_shape": [2, 2304]}, "inbound_nodes": [[["conv2d_47", 0, 0, {}]]]}, {"name": "reshape_21", "class_name": "Reshape", "config": {"name": "reshape_21", "trainable": true, "target_shape": [2, 2304]}, "inbound_nodes": [[["conv2d_26", 0, 0, {}]]]}, {"name": "permute_2", "class_name": "Permute", "config": {"name": "permute_2", "trainable": true, "dims": [2, 1]}, "inbound_nodes": [[["reshape_38", 0, 0, {}]]]}, {"name": "permute_1", "class_name": "Permute", "config": {"name": "permute_1", "trainable": true, "dims": [2, 1]}, "inbound_nodes": [[["reshape_21", 0, 0, {}]]]}, {"name": "activation_2", "class_name": "Activation", "config": {"name": "activation_2", "trainable": true, "activation": "softmax"}, "inbound_nodes": [[["permute_2", 0, 0, {}]]]}, {"name": "activation_1", "class_name": "Activation", "config": {"name": "activation_1", "trainable": true, "activation": "softmax"}, "inbound_nodes": [[["permute_1", 0, 0, {}]]]}], "input_layers": [["input_1", 0, 0]], "output_layers": [["activation_2", 0, 0], ["activation_1", 0, 0]]}, "keras_version": "2.2.4", "backend": "tensorflow"}